…
2021-02-22 23:14:26 | model
2021-02-22 23:16:39 | Start tabModel
2021-02-22 23:16:39 | Train set size: 378529
2021-02-22 23:16:39 | Validation set size: 46883
2021-02-22 23:16:39 | Test set size: 47148
2021-02-22 23:17:01 | Start tabModel
2021-02-22 23:17:01 | Train set size: 378051
2021-02-22 23:17:01 | Validation set size: 47254
2021-02-22 23:17:01 | Test set size: 47255
Model: "sequential_1"
_________________________________________________________________
Layer (type)                 Output Shape              Param #   
=================================================================
conv2d_1 (Conv2D)            (None, 190, 7, 32)        320       
_________________________________________________________________
conv2d_2 (Conv2D)            (None, 188, 5, 64)        18496     
_________________________________________________________________
conv2d_3 (Conv2D)            (None, 186, 3, 64)        36928     
_________________________________________________________________
max_pooling2d_1 (MaxPooling2 (None, 93, 1, 64)         0         
_________________________________________________________________
dropout_1 (Dropout)          (None, 93, 1, 64)         0         
_________________________________________________________________
flatten_1 (Flatten)          (None, 5952)              0         
_________________________________________________________________
dense_1 (Dense)              (None, 128)               761984    
_________________________________________________________________
dropout_2 (Dropout)          (None, 128)               0         
_________________________________________________________________
dense_2 (Dense)              (None, 126)               16254     
_________________________________________________________________
reshape_1 (Reshape)          (None, 6, 21)             0         
_________________________________________________________________
activation_1 (Activation)    (None, 6, 21)             0         
=================================================================
Total params: 833,982
Trainable params: 833,982
Non-trainable params: 0
_________________________________________________________________
2021-02-22 23:46:03 | Start tabModel
2021-02-22 23:46:03 | Train set size: 378208
2021-02-22 23:46:03 | Validation set size: 47304
2021-02-22 23:46:03 | Test set size: 47048
Model: "sequential_1"
_________________________________________________________________
Layer (type)                 Output Shape              Param #   
=================================================================
conv2d_1 (Conv2D)            (None, 190, 7, 32)        320       
_________________________________________________________________
conv2d_2 (Conv2D)            (None, 188, 5, 64)        18496     
_________________________________________________________________
conv2d_3 (Conv2D)            (None, 186, 3, 64)        36928     
_________________________________________________________________
max_pooling2d_1 (MaxPooling2 (None, 93, 1, 64)         0         
_________________________________________________________________
dropout_1 (Dropout)          (None, 93, 1, 64)         0         
_________________________________________________________________
flatten_1 (Flatten)          (None, 5952)              0         
_________________________________________________________________
dense_1 (Dense)              (None, 128)               761984    
_________________________________________________________________
dropout_2 (Dropout)          (None, 128)               0         
_________________________________________________________________
dense_2 (Dense)              (None, 126)               16254     
_________________________________________________________________
reshape_1 (Reshape)          (None, 6, 21)             0         
_________________________________________________________________
activation_1 (Activation)    (None, 6, 21)             0         
=================================================================
Total params: 833,982
Trainable params: 833,982
Non-trainable params: 0
_________________________________________________________________
2021-02-23 00:33:40 | Start tabModel
2021-02-23 00:33:40 | Train set size: 377844
2021-02-23 00:33:40 | Validation set size: 47315
2021-02-23 00:33:40 | Test set size: 47401
Model: "sequential_1"
_________________________________________________________________
Layer (type)                 Output Shape              Param #   
=================================================================
conv2d_1 (Conv2D)            (None, 190, 7, 32)        320       
_________________________________________________________________
conv2d_2 (Conv2D)            (None, 188, 5, 64)        18496     
_________________________________________________________________
conv2d_3 (Conv2D)            (None, 186, 3, 64)        36928     
_________________________________________________________________
max_pooling2d_1 (MaxPooling2 (None, 93, 1, 64)         0         
_________________________________________________________________
dropout_1 (Dropout)          (None, 93, 1, 64)         0         
_________________________________________________________________
flatten_1 (Flatten)          (None, 5952)              0         
_________________________________________________________________
dense_1 (Dense)              (None, 128)               761984    
_________________________________________________________________
dropout_2 (Dropout)          (None, 128)               0         
_________________________________________________________________
dense_2 (Dense)              (None, 126)               16254     
_________________________________________________________________
reshape_1 (Reshape)          (None, 6, 21)             0         
_________________________________________________________________
activation_1 (Activation)    (None, 6, 21)             0         
=================================================================
Total params: 833,982
Trainable params: 833,982
Non-trainable params: 0
_________________________________________________________________
2021-02-23 00:53:38 | Start tabModel
2021-02-23 00:53:38 | Train set size: 378675
2021-02-23 00:53:38 | Validation set size: 47020
2021-02-23 00:53:38 | Test set size: 46865
Model: "sequential_1"
_________________________________________________________________
Layer (type)                 Output Shape              Param #   
=================================================================
conv2d_1 (Conv2D)            (None, 190, 7, 32)        320       
_________________________________________________________________
conv2d_2 (Conv2D)            (None, 188, 5, 64)        18496     
_________________________________________________________________
conv2d_3 (Conv2D)            (None, 186, 3, 64)        36928     
_________________________________________________________________
max_pooling2d_1 (MaxPooling2 (None, 93, 1, 64)         0         
_________________________________________________________________
dropout_1 (Dropout)          (None, 93, 1, 64)         0         
_________________________________________________________________
flatten_1 (Flatten)          (None, 5952)              0         
_________________________________________________________________
dense_1 (Dense)              (None, 128)               761984    
_________________________________________________________________
dropout_2 (Dropout)          (None, 128)               0         
_________________________________________________________________
dense_2 (Dense)              (None, 126)               16254     
_________________________________________________________________
reshape_1 (Reshape)          (None, 6, 21)             0         
_________________________________________________________________
activation_1 (Activation)    (None, 6, 21)             0         
=================================================================
Total params: 833,982
Trainable params: 833,982
Non-trainable params: 0
_________________________________________________________________
2021-02-23 01:05:36 | Start tabModel
2021-02-23 01:05:36 | Train set size: 378487
2021-02-23 01:05:36 | Validation set size: 47007
2021-02-23 01:05:36 | Test set size: 47066
Model: "sequential_1"
_________________________________________________________________
Layer (type)                 Output Shape              Param #   
=================================================================
conv2d_1 (Conv2D)            (None, 190, 7, 32)        320       
_________________________________________________________________
conv2d_2 (Conv2D)            (None, 188, 5, 64)        18496     
_________________________________________________________________
conv2d_3 (Conv2D)            (None, 186, 3, 64)        36928     
_________________________________________________________________
max_pooling2d_1 (MaxPooling2 (None, 93, 1, 64)         0         
_________________________________________________________________
dropout_1 (Dropout)          (None, 93, 1, 64)         0         
_________________________________________________________________
flatten_1 (Flatten)          (None, 5952)              0         
_________________________________________________________________
dense_1 (Dense)              (None, 128)               761984    
_________________________________________________________________
dropout_2 (Dropout)          (None, 128)               0         
_________________________________________________________________
dense_2 (Dense)              (None, 126)               16254     
_________________________________________________________________
reshape_1 (Reshape)          (None, 6, 21)             0         
_________________________________________________________________
activation_1 (Activation)    (None, 6, 21)             0         
=================================================================
Total params: 833,982
Trainable params: 833,982
Non-trainable params: 0
_________________________________________________________________
2021-02-23 01:34:41 | Start tabModel
2021-02-23 01:34:41 | Train set size: 378398
2021-02-23 01:34:41 | Validation set size: 47026
2021-02-23 01:34:41 | Test set size: 47136
Model: "sequential_1"
_________________________________________________________________
Layer (type)                 Output Shape              Param #   
=================================================================
conv2d_1 (Conv2D)            (None, 190, 7, 32)        320       
_________________________________________________________________
conv2d_2 (Conv2D)            (None, 188, 5, 64)        18496     
_________________________________________________________________
conv2d_3 (Conv2D)            (None, 186, 3, 64)        36928     
_________________________________________________________________
max_pooling2d_1 (MaxPooling2 (None, 93, 1, 64)         0         
_________________________________________________________________
dropout_1 (Dropout)          (None, 93, 1, 64)         0         
_________________________________________________________________
flatten_1 (Flatten)          (None, 5952)              0         
_________________________________________________________________
dense_1 (Dense)              (None, 128)               761984    
_________________________________________________________________
dropout_2 (Dropout)          (None, 128)               0         
_________________________________________________________________
dense_2 (Dense)              (None, 126)               16254     
_________________________________________________________________
reshape_1 (Reshape)          (None, 6, 21)             0         
_________________________________________________________________
activation_1 (Activation)    (None, 6, 21)             0         
=================================================================
Total params: 833,982
Trainable params: 833,982
Non-trainable params: 0
_________________________________________________________________
2021-02-23 01:59:11 | Start tabModel
2021-02-23 01:59:11 | Train set size: 378613
2021-02-23 01:59:11 | Validation set size: 46851
2021-02-23 01:59:11 | Test set size: 47096
Model: "sequential_1"
_________________________________________________________________
Layer (type)                 Output Shape              Param #   
=================================================================
conv2d_1 (Conv2D)            (None, 190, 7, 32)        320       
_________________________________________________________________
conv2d_2 (Conv2D)            (None, 188, 5, 64)        18496     
_________________________________________________________________
conv2d_3 (Conv2D)            (None, 186, 3, 64)        36928     
_________________________________________________________________
max_pooling2d_1 (MaxPooling2 (None, 93, 1, 64)         0         
_________________________________________________________________
dropout_1 (Dropout)          (None, 93, 1, 64)         0         
_________________________________________________________________
flatten_1 (Flatten)          (None, 5952)              0         
_________________________________________________________________
dense_1 (Dense)              (None, 128)               761984    
_________________________________________________________________
dropout_2 (Dropout)          (None, 128)               0         
_________________________________________________________________
dense_2 (Dense)              (None, 126)               16254     
_________________________________________________________________
reshape_1 (Reshape)          (None, 6, 21)             0         
_________________________________________________________________
activation_1 (Activation)    (None, 6, 21)             0         
=================================================================
Total params: 833,982
Trainable params: 833,982
Non-trainable params: 0
_________________________________________________________________
2021-02-23 10:14:31 | Start tabModel
2021-02-23 10:14:31 | Train set size: 378006
2021-02-23 10:14:31 | Validation set size: 47194
2021-02-23 10:14:31 | Test set size: 47360
Model: "sequential_1"
_________________________________________________________________
Layer (type)                 Output Shape              Param #   
=================================================================
conv2d_1 (Conv2D)            (None, 190, 7, 32)        320       
_________________________________________________________________
conv2d_2 (Conv2D)            (None, 188, 5, 64)        18496     
_________________________________________________________________
conv2d_3 (Conv2D)            (None, 186, 3, 64)        36928     
_________________________________________________________________
max_pooling2d_1 (MaxPooling2 (None, 93, 1, 64)         0         
_________________________________________________________________
dropout_1 (Dropout)          (None, 93, 1, 64)         0         
_________________________________________________________________
flatten_1 (Flatten)          (None, 5952)              0         
_________________________________________________________________
dense_1 (Dense)              (None, 128)               761984    
_________________________________________________________________
dropout_2 (Dropout)          (None, 128)               0         
_________________________________________________________________
dense_2 (Dense)              (None, 126)               16254     
_________________________________________________________________
reshape_1 (Reshape)          (None, 6, 21)             0         
_________________________________________________________________
activation_1 (Activation)    (None, 6, 21)             0         
=================================================================
Total params: 833,982
Trainable params: 833,982
Non-trainable params: 0
_________________________________________________________________
2021-02-23 10:15:23 | Start tabModel
2021-02-23 10:15:23 | Train set size: 377885
2021-02-23 10:15:23 | Validation set size: 47340
2021-02-23 10:15:23 | Test set size: 47335
Model: "sequential_1"
_________________________________________________________________
Layer (type)                 Output Shape              Param #   
=================================================================
conv2d_1 (Conv2D)            (None, 190, 7, 32)        320       
_________________________________________________________________
conv2d_2 (Conv2D)            (None, 188, 5, 64)        18496     
_________________________________________________________________
conv2d_3 (Conv2D)            (None, 186, 3, 64)        36928     
_________________________________________________________________
max_pooling2d_1 (MaxPooling2 (None, 93, 1, 64)         0         
_________________________________________________________________
dropout_1 (Dropout)          (None, 93, 1, 64)         0         
_________________________________________________________________
flatten_1 (Flatten)          (None, 5952)              0         
_________________________________________________________________
dense_1 (Dense)              (None, 128)               761984    
_________________________________________________________________
dropout_2 (Dropout)          (None, 128)               0         
_________________________________________________________________
dense_2 (Dense)              (None, 126)               16254     
_________________________________________________________________
reshape_1 (Reshape)          (None, 6, 21)             0         
_________________________________________________________________
activation_1 (Activation)    (None, 6, 21)             0         
=================================================================
Total params: 833,982
Trainable params: 833,982
Non-trainable params: 0
_________________________________________________________________
2021-02-23 10:18:35 | Start tabModel
2021-02-23 10:18:35 | Train set size: 378143
2021-02-23 10:18:35 | Validation set size: 47220
2021-02-23 10:18:35 | Test set size: 47197
Model: "sequential_1"
_________________________________________________________________
Layer (type)                 Output Shape              Param #   
=================================================================
conv2d_1 (Conv2D)            (None, 190, 7, 32)        320       
_________________________________________________________________
conv2d_2 (Conv2D)            (None, 188, 5, 64)        18496     
_________________________________________________________________
conv2d_3 (Conv2D)            (None, 186, 3, 64)        36928     
_________________________________________________________________
max_pooling2d_1 (MaxPooling2 (None, 93, 1, 64)         0         
_________________________________________________________________
dropout_1 (Dropout)          (None, 93, 1, 64)         0         
_________________________________________________________________
flatten_1 (Flatten)          (None, 5952)              0         
_________________________________________________________________
dense_1 (Dense)              (None, 128)               761984    
_________________________________________________________________
dropout_2 (Dropout)          (None, 128)               0         
_________________________________________________________________
dense_2 (Dense)              (None, 126)               16254     
_________________________________________________________________
reshape_1 (Reshape)          (None, 6, 21)             0         
_________________________________________________________________
activation_1 (Activation)    (None, 6, 21)             0         
=================================================================
Total params: 833,982
Trainable params: 833,982
Non-trainable params: 0
_________________________________________________________________
2021-02-24 14:26:57 | Start tabModel
2021-02-24 14:26:57 | Train set size: 378203
2021-02-24 14:26:57 | Validation set size: 47225
2021-02-24 14:26:57 | Test set size: 47132
Model: "sequential_1"
_________________________________________________________________
Layer (type)                 Output Shape              Param #   
=================================================================
conv2d_1 (Conv2D)            (None, 190, 7, 32)        320       
_________________________________________________________________
conv2d_2 (Conv2D)            (None, 188, 5, 64)        18496     
_________________________________________________________________
conv2d_3 (Conv2D)            (None, 186, 3, 64)        36928     
_________________________________________________________________
max_pooling2d_1 (MaxPooling2 (None, 93, 1, 64)         0         
_________________________________________________________________
dropout_1 (Dropout)          (None, 93, 1, 64)         0         
_________________________________________________________________
flatten_1 (Flatten)          (None, 5952)              0         
_________________________________________________________________
dense_1 (Dense)              (None, 128)               761984    
_________________________________________________________________
dropout_2 (Dropout)          (None, 128)               0         
_________________________________________________________________
dense_2 (Dense)              (None, 126)               16254     
_________________________________________________________________
reshape_1 (Reshape)          (None, 6, 21)             0         
_________________________________________________________________
activation_1 (Activation)    (None, 6, 21)             0         
=================================================================
Total params: 833,982
Trainable params: 833,982
Non-trainable params: 0
_________________________________________________________________
2021-02-24 19:01:31 | Start tabModel
2021-02-24 19:01:32 | Train set size: 377981
2021-02-24 19:01:32 | Validation set size: 47427
2021-02-24 19:01:32 | Test set size: 47152
Model: "sequential_1"
_________________________________________________________________
Layer (type)                 Output Shape              Param #   
=================================================================
conv2d_1 (Conv2D)            (None, 190, 7, 32)        320       
_________________________________________________________________
conv2d_2 (Conv2D)            (None, 188, 5, 64)        18496     
_________________________________________________________________
conv2d_3 (Conv2D)            (None, 186, 3, 64)        36928     
_________________________________________________________________
max_pooling2d_1 (MaxPooling2 (None, 93, 1, 64)         0         
_________________________________________________________________
dropout_1 (Dropout)          (None, 93, 1, 64)         0         
_________________________________________________________________
flatten_1 (Flatten)          (None, 5952)              0         
_________________________________________________________________
dense_1 (Dense)              (None, 128)               761984    
_________________________________________________________________
dropout_2 (Dropout)          (None, 128)               0         
_________________________________________________________________
dense_2 (Dense)              (None, 126)               16254     
_________________________________________________________________
reshape_1 (Reshape)          (None, 6, 21)             0         
_________________________________________________________________
activation_1 (Activation)    (None, 6, 21)             0         
=================================================================
Total params: 833,982
Trainable params: 833,982
Non-trainable params: 0
_________________________________________________________________
2021-02-24 19:03:53 | Start tabModel
2021-02-24 19:03:53 | Train set size: 378143
2021-02-24 19:03:53 | Validation set size: 47438
2021-02-24 19:03:53 | Test set size: 46979
Model: "sequential"
_________________________________________________________________
Layer (type)                 Output Shape              Param #   
=================================================================
conv2d (Conv2D)              (None, 190, 7, 32)        320       
_________________________________________________________________
conv2d_1 (Conv2D)            (None, 188, 5, 64)        18496     
_________________________________________________________________
conv2d_2 (Conv2D)            (None, 186, 3, 64)        36928     
_________________________________________________________________
max_pooling2d (MaxPooling2D) (None, 93, 1, 64)         0         
_________________________________________________________________
dropout (Dropout)            (None, 93, 1, 64)         0         
_________________________________________________________________
flatten (Flatten)            (None, 5952)              0         
_________________________________________________________________
dense (Dense)                (None, 128)               761984    
_________________________________________________________________
dropout_1 (Dropout)          (None, 128)               0         
_________________________________________________________________
dense_1 (Dense)              (None, 126)               16254     
_________________________________________________________________
reshape (Reshape)            (None, 6, 21)             0         
_________________________________________________________________
activation (Activation)      (None, 6, 21)             0         
=================================================================
Total params: 833,982
Trainable params: 833,982
Non-trainable params: 0
_________________________________________________________________
2021-02-25 01:54:38 | Start tabModel
2021-02-25 01:54:38 | Train set size: 377565
2021-02-25 01:54:38 | Validation set size: 47652
2021-02-25 01:54:38 | Test set size: 47343
Model: "sequential"
_________________________________________________________________
Layer (type)                 Output Shape              Param #   
=================================================================
conv2d (Conv2D)              (None, 190, 7, 32)        320       
_________________________________________________________________
conv2d_1 (Conv2D)            (None, 188, 5, 64)        18496     
_________________________________________________________________
conv2d_2 (Conv2D)            (None, 186, 3, 64)        36928     
_________________________________________________________________
max_pooling2d (MaxPooling2D) (None, 93, 1, 64)         0         
_________________________________________________________________
dropout (Dropout)            (None, 93, 1, 64)         0         
_________________________________________________________________
flatten (Flatten)            (None, 5952)              0         
_________________________________________________________________
dense (Dense)                (None, 128)               761984    
_________________________________________________________________
dropout_1 (Dropout)          (None, 128)               0         
_________________________________________________________________
dense_1 (Dense)              (None, 126)               16254     
_________________________________________________________________
reshape (Reshape)            (None, 6, 21)             0         
_________________________________________________________________
activation (Activation)      (None, 6, 21)             0         
=================================================================
Total params: 833,982
Trainable params: 833,982
Non-trainable params: 0
_________________________________________________________________
